…
TrackEmbedder.output_dim = 32
 
========config=======
2025-01-22 00:54:42,596 [INFO] train: Setting random seed to 42
2025-01-22 00:54:42,597 [INFO] train: Preparing datasets for regression
2025-01-22 01:00:09,624 [INFO] train: Training regression model
2025-01-22 01:15:00,573 [INFO] train: Regression model trained. Proceeding to metric learning.
2025-01-22 01:15:00,573 [INFO] train: Preparing datasets for training and validation
2025-01-22 01:15:00,573 [INFO] train: Creating model for training
2025-01-22 01:15:00,574 [INFO] train: TripletTracksEmbedder(
  (model): TrackEmbedder(
    (input_projection): Linear(in_features=3, out_features=64, bias=True)
    (blocks): Sequential(
      (0): SublayerConnection(
        (norm): LayerNorm((64,), eps=1e-05, elementwise_affine=True)
        (sublayer): FFN(
          (linear1): Linear(in_features=64, out_features=128, bias=True)
          (linear2): Linear(in_features=128, out_features=128, bias=True)
          (linear3): Linear(in_features=128, out_features=128, bias=True)
          (linear4): Linear(in_features=128, out_features=64, bias=True)
          (relu): ReLU()
          (dropout): Dropout(p=0.2, inplace=False)
        )
      )
      (1): SublayerConnection(
        (norm): LayerNorm((64,), eps=1e-05, elementwise_affine=True)
        (sublayer): FFN(
          (linear1): Linear(in_features=64, out_features=128, bias=True)
          (linear2): Linear(in_features=128, out_features=128, bias=True)
          (linear3): Linear(in_features=128, out_features=128, bias=True)
          (linear4): Linear(in_features=128, out_features=64, bias=True)
          (relu): ReLU()
          (dropout): Dropout(p=0.2, inplace=False)
        )
      )
    )
    (layer_norm): LayerNorm((64,), eps=1e-05, elementwise_affine=True)
    (output_layer): Linear(in_features=64, out_features=32, bias=True)
  )
  (_distance): LpDistance()
  (criterion): TripletMarginLoss(
    (distance): LpDistance()
    (reducer): ThresholdReducer()
  )
  (triplet_miner): TripletMarginMiner(
    (distance): LpDistance()
  )
)
2025-01-22 08:12:49,288 [INFO] train: End of training
